tutorials/base_model.tflite (tflite, 733424 bytes, 8 tensors)

sequential/dense/BiasAdd/ReadVariableOp f4 [200]
00000000: 792d 1b3d e682 a3bc c86a ff3c 609d 573c
00000010: f904 f03b 415f dbbc e149 183d 8787 d83c
00000020: 8b33 7c3d d0ac 813c 4696 c93c 6ef1 c83c
00000030: 6e31 c93c 53b7 643c fda7 753c 1cb6 823c
00000040: 4a90 2e3c fa31 643b 2315 493c e46f 313d
00000050: 8fea 323c 917a a53b 4630 4dbb 864e 213b
00000060: b78d 8f3c 742d 373d 78bf ef3b fac6 4f3a
00000070: f1d8 3ebc a4e7 743c 5bec 7c3d a6f8 a53c
00000080: 11ce a13c 17f5 9239 ae76 2c3d 9095 413d
00000090: c0c1 173b b180 8d3d 178a 723c 08c5 403c
000000a0: 6b20 363d dc95 2c3c 230e 2b3c 2888 80bb
000000b0: 1878 093c 21ed 283d 36a1 58bc 2885 5bba
000000c0: 9045 163d 5ad1 363c 9492 603d bfb3 fa3b
000000d0: 0f46 f5bb 4f89 063b a273 403c 53eb 6f3c
000000e0: 0814 b13c 5d3b 5f3c 61c9 a23c 3e9c 133d
000000f0: 6a68 84bc ac42 1abc d9af 043d c114 9c3c
00000100: 0845 c33b 3016 283d 3f26 cf3b df3d 8f3c
00000110: 234d a9bc 28cd bc3c 993c 0d3c 682f fb3c
00000120: 0248 b53c 13b9 82bc 1675 303c 3410 1cbc
00000130: a280 8d3c e9fe a03c 95bd ca3b 9e34 65bc
00000140: b020 8abc 613e 4b3c d9aa be3c e181 c03c
00000150: c59d 973b 6c5c 613c d6f2 e03c 0963 3d3d
00000160: a381 7d3b dc42 acba 98a4 b03c 0ad5 f43c
00000170: 165b 993c 3f70 803a 5c0c 883c 8ea7 333d
00000180: 2f41 1eba 13d9 593c 327d 1c3c e526 873c
00000190: 75d6 0e3c ec58 4c3d 0c54 903c b62e 223d
000001a0: e76b 293d 7a72 aa3b 6418 273c 98f5 1c3d
000001b0: 7bfa b7ba c8fb 4d3c 3fe1 a23c 93d7 123d
000001c0: 5e8c c33c 2309 b13b fad8 123d 8fe8 82bb
000001d0: eebc 30bb f79d c73c d54f 3d3c adaa e53b
000001e0: b5a4 853c c99a 993b 8b84 b53b dc42 ad3c
000001f0: aba7 733c 5e92 1f3c 8d36 bc3c a0ba 7a3b
00000200: 93e8 1fbc 46ac c93b 0b22 413d c822 473c
00000210: 634a 553c ea5c 71bb 2d18 8d3c 33c5 b53c
00000220: 3e5f c23c 66e4 9e3b 7d90 ee3c 359b b5ba
00000230: 3f1b 043d de81 2a3b d7e3 02bc 6edd d73b
00000240: 6f58 033d 1865 843c 032e 79bc 4407 6a3c
00000250: 12fa e6bc ef45 893c ba8a de3c 802b 3d3d
00000260: 3212 733b 16c9 843c baa8 f13c c0d5 6a39
00000270: e3e6 383d 82af f83c 048d 2b3c 9ba6 323c
00000280: 8d59 893c a0a5 493b 0db9 663c 7e68 ac3c
00000290: cbb6 c73c 377e 403c 2abc 083d 9da7 293d
000002a0: ef56 b73b 7b80 de3c 761d bd3b fa8f 01bc
000002b0: 4a08 323d 4926 d1bb 37ab 5e3c 918c 093d
000002c0: fb6f ea3c c034 803c 9e65 de3c b235 d03c
000002d0: 09eb 393b a158 ca3c a8d6 07bc dee4 a83b
000002e0: c8e6 b03c 8aad e33c 7ccd 00bc c300 f5ba
000002f0: e58a 103c eff4 203d 9a2b d13c 263b 9d3c
00000300: 807f c83c ba66 b73c 4f44 a53c cc26 8d3c
00000310: 1223 66bc 7180 5e3d 0edf 773c 4817 f33c
0.037885163 -0.019959878 0.031178847 0.01316008 0.0073248115 -0.026778819 0.03717983 0.026431812
0.061572593 0.015829474 0.024607789 0.024529185 0.024559703 0.0139597235 0.014993665 0.015955977
0.010654518 0.0034819827 0.012273106 0.043319598 0.010920181 0.0050500114 -0.003130929 0.0024613454
0.01752363 0.04472108 0.007316526 0.0007926073 -0.011648403 0.014947806 0.061748844 0.020260166
0.01975158 0.00028029896 0.04210537 0.047261775 0.0023156255 0.069093116 0.014803431 0.011765726
0.04446451 0.010533776 0.010440382 -0.003922481 0.008390449 0.04124177 -0.013222029 -0.0008374029
0.036687434 0.011158312 0.054827288 0.007650822 -0.0074851583 0.002052862 0.011746319 0.014643508
0.021615997 0.013624993 0.019871416 0.036037676 -0.01616307 -0.00941531 0.032394264 0.019052865
0.005959157 0.041036785 0.006321698 0.017485557 -0.020666664 0.023047045 0.008620405 0.030662253
0.022129063 -0.01595739 0.010770103 -0.0095253475 0.017273251 0.0196528 0.0061871507 -0.013989596
-0.01686129 0.012405009 0.023274826 0.023499431 0.004626962 0.013754945 0.027459543 0.046237025
0.0038682006 -0.0013142484 0.02156286 0.029886741 0.018720191 0.0009799077 0.016607456 0.043860964
-0.0006036935 0.013296383 0.009551333 0.016498039 0.008718123 0.04988949 0.017618202 0.03959533
0.04136267 0.005201635 0.010198686 0.038320154 -0.0014036441 0.012572236 0.019882796 0.03585012
0.023870643 0.0054027005 0.035851456 -0.0039950083 -0.002696808 0.024367316 0.011554678 0.0070088715
0.01631389 0.0046876413 0.005539482 0.021150045 0.014871518 0.0097394865 0.02297523 0.003825821
-0.00976004 0.00615457 0.047151607 0.012154289 0.013018223 -0.0036829063 0.017223442 0.022188758
0.023727056 0.0048490046 0.029121632 -0.0013855459 0.032252546 0.0026017348 -0.007988892 0.006587676
0.03206676 0.016161487 -0.015208724 0.014283959 -0.028195415 0.01675698 0.02716576 0.046184063
0.0037089703 0.016209166 0.0294994 0.00022395607 0.045142066 0.030357126 0.010470632 0.01090398
0.016766334 0.0030768886 0.0140822055 0.02104592 0.024379155 0.011748842 0.033382572 0.041419614
0.00559508 0.027160874 0.0057713343 -0.007907862 0.043464936 -0.006382738 0.0135906255 0.03358132
0.02861785 0.015650153 0.027148064 0.025416229 0.0028368852 0.024700465 -0.008290924 0.005154236
0.02159442 0.02779271 -0.007861491 -0.0018692244 0.008822178 0.039296087 0.025533486 0.019193243
0.02447486 0.022387851 0.020174174 0.017230414 -0.014046447 0.05432171 0.015128864 0.029674187

sequential/dense_3/BiasAdd/ReadVariableOp f4 [10]
00000000: 457d 64bc 7106 1f3b 6195 113c b5cf 993b
00000010: a54b 08bd 8ec5 0d3d 2333 f3bc a254 153c
00000020: ce90 ae3b 7d9a 4bbb
-0.013945882 0.0024265314 0.008885712 0.00469395 -0.033275265 0.03461223 -0.02968747 0.009114416
0.0053273207 -0.0031067424

sequential/dense_2/BiasAdd/ReadVariableOp f4 [50]
00000000: 05a2 163d 1105 ad3b f9b3 6c3c 0ad3 5f3b
00000010: 7556 28bb 2502 073d 1353 a33c c5a8 a23c
00000020: bd57 183c 9f7e 3bbc b689 033b caf8 333b
00000030: 7ee3 7b3a 8676 06bd c71a 5abc fd43 a93c
00000040: d984 ecbb 0d54 3d3d 1702 8b3c 562d 253d
00000050: 1b57 c1ba 79e1 e73c 97f2 073d 1963 ccbb
00000060: d3d3 023d 4eb4 6b3c f22f 063c 4b45 0c3d
00000070: 2103 8cbb b600 863c b371 1a3d 75b2 f43c
00000080: 0b6e e33c 3110 903c f777 ec39 c792 86bc
00000090: db8c d03c 39fe f4b9 888b 9f3c 11b8 5f3b
000000a0: 2c80 5e3c 3699 8a3c ef55 bf3c 0b72 a83c
000000b0: 6b83 073d 4e2b 0f3b 39c9 c93c f958 33bc
000000c0: 7335 b7bb 6c9a 833c
0.036775608 0.005280145 0.014447206 0.0034152889 -0.0025686298 0.03296103 0.019937074 0.019855866
0.009298262 -0.011443763 0.0020071096 0.0027461522 0.0009608789 -0.032827877 -0.013312048 0.020662302
-0.007217985 0.046222735 0.01696877 0.04032644 -0.0014750691 0.028305756 0.033190336 -0.0062373993
0.031940293 0.01438625 0.008190142 0.03424577 -0.004272834 0.01635776 0.03770609 0.029870251
0.027762434 0.017585846 0.00045102809 -0.01642741 0.02545779 -0.00046728717 0.019475713 0.0034136812
0.013580363 0.01691876 0.023356406 0.020562192 0.033084314 0.002184588 0.024632083 -0.010946506
-0.0055910884 0.016064845

sequential/dense_1/BiasAdd/ReadVariableOp f4 [100]
00000000: 9070 183d c8de fa3c 7f77 343d 1f0d 743c
00000010: 421a e43b b5d4 723c 6e22 dd3b cb2d d83c
00000020: e571 053c b06e fc3c 8006 383c b858 abbb
00000030: 19ee 173c 113b 28bc ba54 a23c e550 77ba
00000040: 2000 6c3c 9e8a f83c 8bea 3ebc 730a d63c
00000050: 9840 a23c 72c5 0ebc 001e 003d 4451 ebbb
00000060: c3a0 92bb 6f03 d13c aafd b93c 6abd 3d3c
00000070: 8b69 4c3c 5d77 ea3c d918 4c3c 3247 953c
00000080: 9462 0e3c 350d af3c 6eaf 313c 31a2 603b
00000090: 17f0 463d 8282 e63b 27dc 343c c38a 443c
000000a0: 3bfe e03c 4731 383d d748 e6bb db60 8d3c
000000b0: 96c2 c9bb d3c5 a33c f7ef 60bc 5055 053d
000000c0: c371 c03c ff36 be3c ae71 a9bc 6c20 923a
000000d0: 0d82 d63b 2c7a 133d ccd7 173b 20ac 263c
000000e0: 9367 463c 8fd0 383c a54b 863c 3160 e53c
000000f0: 38b4 c53c 9728 f73b 7063 dcbb ef81 0ebc
00000100: 2c5f 5abc 6101 3f3c 91f7 1d3c 82f5 ee3c
00000110: 4d57 c7ba a7d4 1dbc 0a7a 8bbc 02c5 703c
00000120: c753 283d 4d0d 783c 1312 043d f3c4 a23c
00000130: 2a8b 18bd abc5 5a3c 4061 a43c c6d9 b2bb
00000140: 22fd 87bb 6863 f43c 06fc ff3c 04cf 093d
00000150: 9a04 053d 1197 bc3c 4db9 4d3d 94cd 14bc
00000160: 8b1e a93c 66ea 2e3d 0b25 a73c 07b2 2a3c
00000170: 4789 793b 8a26 373c f132 fe3b a489 263c
00000180: 0861 db3c b46f 993b 2cac a8bc 3a41 803a
0.037216723 0.030623809 0.044059273 0.014895706 0.006961138 0.014821221 0.006748489 0.026389023
0.00814483 0.030814499 0.0112320185 -0.005229082 0.0092730755 -0.010267989 0.019815791 -0.00094343565
0.014404327 0.030339535 -0.011652599 0.02612803 0.019806191 -0.008714067 0.03127861 -0.0071813185
-0.0044747307 0.025514333 0.022703964 0.011580804 0.012476335 0.02862137 0.012457096 0.018222425
0.008690495 0.021368602 0.010845048 0.003427636 0.04856881 0.0070346007 0.0110388165 0.011995974
0.027464977 0.04496887 -0.007027726 0.017258098 -0.0061572297 0.01999179 -0.013729087 0.032552063
0.023491746 0.023219584 -0.02068409 0.0011148578 0.006546265 0.036005184 0.0023169396 0.010172874
0.012109655 0.011280193 0.016393492 0.02799997 0.024133787 0.0075426805 -0.006725721 -0.008697971
-0.013328355 0.011658044 0.009641544 0.029169802 -0.0015208513 -0.00963322 -0.017025966 0.014695408
0.04109552 0.01513989 0.0322438 0.019869303 -0.037242092 0.013352792 0.020065904 -0.0054580895
-0.004150049 0.029832557 0.031248104 0.03364469 0.03247509 0.023021253 0.050225545 -0.009082217
0.020644447 0.04270401 0.020403406 0.010418422 0.0038076208 0.011178622 0.0077575375 0.010164652
0.026779667 0.0046825055 -0.02058991 0.0009785064

sequential/dense/MatMul f4 [200, 784]
00000000: 7c02 663d 60c0 573d 0000 0000 0000 0080
00000010: 8e84 883d 0000 0000 0000 0080 0000 0000
00000020: 0000 0080 0000 0080 6096 5d3d 3520 62bd
00000030: 0000 0000 0000 0000 e660 88bd 0000 0080
00000040: 0000 0000 f1ac 9fbd 0000 0000 5a4f 62bd
00000050: cc5f 673d 0000 0000 0000 0000 0000 0080
00000060: 5832 533d 3504 7abd 0000 0080 0000 0000
00000070: 0000 0000 ff70 8dbd 0000 0000 53a8 85bd
00000080: b683 953d 0000 0000 0000 0000 0000 0000
00000090: 0000 0000 106a 743d bf82 c93d 0000 0000
000000a0: d7da a33d 0000 0000 0000 0000 8eb5 51bd
000000b0: 94bf 62bd 0000 0000 e861 833d 0000 0000
000000c0: 0000 0000 0000 0080 0000 0000 8025 813d
000000d0: 0000 0080 0000 0080 0000 0000 0000 0080
000000e0: 0000 0080 0000 0080 0000 0000 0000 0000
000000f0: 3229 903d 0000 0000 018a 80bd 0000 0000
00000100: cc23 87bd 0000 0000 0000 0000 0000 0000
00000110: 9284 a43d 9211 ca3d 0000 0000 0000 0000
00000120: 0000 0000 0000 0000 0000 0000 7bd0 633d
00000130: 6e42 83bd 0000 0000 0000 0000 5e3a 863d
00000140: 4954 98bd 0000 0000 0000 0080 0000 0000
00000150: 0000 0080 0000 0000 5eef a3bd 0000 0000
00000160: 105c 8fbd 0000 0000 0000 0000 baca 683d
00000170: 4655 b5bd ac39 90bd 0000 0000 0000 0000
00000180: 0000 0000 592a b43d d690 c73d 0000 0000
00000190: 0000 0000 0000 0000 f446 7c3d 9b73 5a3d
000001a0: 85de 4e3d 0000 0000 0000 0000 0c29 773d
000001b0: 0000 0000 0000 0080 0000 0000 0000 0080
000001c0: 0000 0080 0000 0080 21da 81bd 0000 0000
000001d0: 0000 0000 e219 4dbd 0000 0000 0000 0000
000001e0: 2c63 51bd 0000 0000 0000 0000 c6e9 a53d
000001f0: 7eb2 6e3d 0000 0000 42c6 4bbd 6a8a 703d
00000200: 0000 0000 8b7b 523d 0000 0000 0000 0000
00000210: 0000 0000 0000 0000 525d 9d3d 0000 0000
00000220: 0000 0000 0000 0000 9cbf 6d3d 0000 0080
00000230: ae85 903d 0000 0000 0000 0080 0000 0080
00000240: 0000 0080 0000 0000 0000 0000 0000 0000
00000250: 0000 0000 8e53 b13d 3755 723d a4c0 d73d
00000260: 8f2d 933d 0000 0000 0000 0000 6829 43bd
00000270: 7fb6 81bd e17b 973d 316e 643d 2187 5cbd
00000280: 9f4a 63bd 0000 0000 431b c23d 0000 0000
00000290: d8f7 923d 0000 0000 8754 7b3d 01c8 883d
000002a0: dc7c 8b3d afc5 51bd 0000 0000 0000 0080
000002b0: fbd0 61bd 0000 0000 fba2 79bd 0000 0000
000002c0: 0000 0000 dcd1 643d 0000 0000 7127 903d
000002d0: f156 923d 0000 0000 0000 0000 01a4 f3bd
000002e0: 127b 8fbd bf37 d63d 0000 0000 0000 0000
000002f0: 0000 0000 5fdb 883d 0000 0000 0000 0000
00000300: 0000 0000 0000 0000 fdbb 023e bb56 493d
00000310: 0000 0080 0000 0000 0000 0000 0000 0080
00000320: 0000 0080 0000 0000 924f b7bd 0000 0000
00000330: 0000 0000 23d6 b33d 0000 0000 e26f 0e3e
00000340: 0000 0000 0000 0000 4bd4 0abe 9d76 bfbd
00000350: 2490 d23d 0000 0000 7cdd 013e 0000 0000
00000360: fad4 ee3d 0000 0000 0000 0000 0000 0000
00000370: 0000 0000 06ec 9f3d 8643 65bd 9523 94bd
00000380: 0a25 753d 0000 0080 0000 0080 0000 0080
00000390: 0000 0080 0000 0000 a99e 6a3d 0000 0000
000003a0: 0000 0000 3567 843d 0000 0000 0000 0000
000003b0: 0000 0000 2c56 a6bd 0000 0000 0000 0000
000003c0: 0000 0000 0000 0000 0000 0000 0000 0000
000003d0: 0000 0000 bbe5 9fbd 0000 0000 0000 0000
000003e0: 0000 0000 0000 0000 0000 0000 b844 9dbd
000003f0: 0000 0080 0000 0080 0000 0080 0000 0080
0.056154713 0.052673697 0.0 -0.0 0.06665908 0.0 -0.0 0.0
-0.0 -0.0 0.054098487 -0.055206496 0.0 0.0 -0.06659107 -0.0
0.0 -0.07796658 0.0 -0.055251457 0.056487843 0.0 0.0 -0.0
0.051561683 -0.06103917 -0.0 0.0 0.0 -0.06906318 0.0 -0.06526246
0.073005125 0.0 0.0 0.0 0.0 0.05967146 0.09839391 0.0
0.08000725 0.0 0.0 -0.051198535 -0.055358484 0.0 0.064151585 0.0
0.0 -0.0 0.0 0.06305981 -0.0 -0.0 0.0 -0.0
-0.0 -0.0 0.0 0.0 0.070391074 0.0 -0.06276322 0.0
-0.065986246 0.0 0.0 0.0 0.08033098 0.098666325 0.0 0.0
0.0 0.0 0.0 0.055618744 -0.06409155 0.0 0.0 0.065541014
-0.07437951 0.0 -0.0 0.0 -0.0 0.0 -0.0800464 0.0
-0.069999814 0.0 0.0 0.05683396 -0.08854155 -0.0704225 0.0 0.0
0.0 0.0879714 0.09744422 0.0 0.0 0.0 0.061591104 0.053332906
0.05050518 0.0 0.0 0.06034188 0.0 -0.0 0.0 -0.0
-0.0 -0.0 -0.06340433 0.0 0.0 -0.050073512 0.0 0.0
-0.05111997 0.0 0.0 0.08101229 0.058275692 0.0 -0.04974962 0.058725752
0.0 0.05138735 0.0 0.0 0.0 0.0 0.07683815 0.0
0.0 0.0 0.05804406 -0.0 0.070567474 0.0 -0.0 -0.0
-0.0 0.0 0.0 0.0 0.0 0.08658515 0.0591633 0.1053479
0.07186424 0.0 0.0 -0.04764691 -0.063336365 0.07396675 0.05576915 -0.053839806
-0.055491086 0.0 0.09477856 0.0 0.07176179 0.0 0.06135991 0.06678773
0.068109244 -0.051213916 0.0 -0.0 -0.05513094 0.0 -0.060946446 0.0
0.0 0.0558642 0.0 0.07038773 0.07145489 0.0 0.0 -0.11896516
-0.07005896 0.104598515 0.0 0.0 0.0 0.06682467 0.0 0.0
0.0 0.0 0.12767024 0.04915498 -0.0 0.0 0.0 -0.0
-0.0 0.0 -0.08950724 0.0 0.0 0.08781078 0.0 0.13909867
0.0 0.0 -0.13557546 -0.093487956 0.10281399 0.0 0.12682146 0.0
0.11661716 0.0 0.0 0.0 0.0 0.0780869 -0.0559726 -0.07233349
0.059849776 -0.0 -0.0 -0.0 -0.0 0.0 0.057280216 0.0
0.0 0.06464998 0.0 0.0 0.0 -0.08121905 0.0 0.0
0.0 0.0 0.0 0.0 0.0 -0.078074895 0.0 0.0
0.0 0.0 0.0 -0.07679123 -0.0 -0.0 -0.0 -0.0

sequential/dense_1/MatMul f4 [100, 200]
00000000: 274f 42be 0000 0080 28a3 013e c5f1 d83d
00000010: e628 e93d 0a08 e3bd 0000 0080 3a2c 043e
00000020: 8857 f1bd 55d8 1a3e 0000 0080 0000 0080
00000030: 08c7 05be 0792 043e 46e4 cc3d c297 053e
00000040: 0000 0080 31b5 03be 0000 0080 0000 0080
00000050: 0000 0080 0000 0080 9bd1 c73d 34bb 83be
00000060: f380 1c3e 0000 0080 0000 0080 0000 0080
00000070: ecd9 31be d52c e63d 0000 0080 6f83 c63d
00000080: 7800 3b3e 28d7 033e 0000 0080 2062 063e
00000090: 3372 ecbd 0000 0080 467e bc3d 0000 0080
000000a0: c460 df3d 7df7 30be 290b 2ebe 0000 0080
000000b0: 3c03 c7bd 0000 0080 0000 0080 b9fe 773e
000000c0: 0000 0080 fe93 f63d 0000 0080 0000 0080
000000d0: 150e 17be b98d 383e 0000 0080 0000 0080
000000e0: 0000 0080 0000 0080 0000 0080 0000 0080
000000f0: 0bbf 153e 0000 0080 5cc4 033e ba80 c7bd
00000100: 0000 0080 0000 0080 5529 003e 0000 0080
00000110: 0000 0080 ca6a 3dbe 214e 293e 4fef 023e
00000120: 5b79 d5bd e209 0e3e 0000 0080 bf7f 71be
00000130: 0000 0080 1c09 1fbe 0000 0080 d709 e13d
00000140: 0000 0080 0000 0080 0000 0080 0000 0080
00000150: 35fa ff3d 3186 16be 0000 0080 0000 0080
00000160: 0000 0080 3ae8 2e3e 0000 0080 0000 0080
00000170: 0000 0080 d75e 373e 0000 0080 0000 0080
00000180: 8e38 0ebe 0000 0080 0000 0080 0000 0080
00000190: 0000 0080 4b60 28be 991b 263e 0000 0080
000001a0: 0000 0080 0000 0080 2aac 343e 7454 0d3e
000001b0: 04c3 ee3d 2ba5 f9bd 0000 0080 eb4f 153e
000001c0: 0493 13be 0000 0080 0000 0080 ec73 093e
000001d0: 0000 0080 0000 0080 0000 0080 0000 0080
000001e0: 0000 0080 fb9f 1e3e ecef 0fbe 0000 0080
000001f0: d91a 5f3e 0000 0080 9da1 233e 69b0 183e
00000200: 0000 0080 0000 0080 0000 0080 0000 0080
00000210: 0000 0080 0000 0080 ca63 cfbd 3f4b ba3d
00000220: 0000 0080 0000 0080 0000 0080 0000 0080
00000230: 0000 0080 0000 0080 fea4 06be fc81 083e
00000240: 6f15 dfbd 5700 cf3d 5a5a c3bd 0000 0080
00000250: 0000 0080 0000 0080 b180 263e 0000 0080
00000260: 0000 0080 9bfc d7bd 0000 0080 0000 0080
00000270: 160e 053e 8927 cabd 0000 0080 0000 0080
00000280: 0000 0080 0000 0080 0000 0080 0000 0080
00000290: 0000 0080 0000 0080 0000 0080 64b6 c93d
000002a0: dcd6 203e 0000 0080 0000 0080 1ecc e2bd
000002b0: 6f94 103e 0000 0080 0000 0080 bc91 c73d
000002c0: 0000 0080 0000 0080 f107 10be 36cc cb3d
000002d0: 3950 37be 25b7 de3d 0000 0080 0000 0080
000002e0: 0000 0080 df28 f4bd 872f 0d3e 0000 0080
000002f0: 4b3c ff3d 8b87 1e3e 0000 0080 0000 0080
00000300: 2494 1e3e 0000 0080 0000 0080 0000 0080
00000310: 0000 0080 0000 0080 a8c5 1d3e 0000 0080
00000320: d7a4 433e 0000 0000 0000 0000 11a3 05be
00000330: 0000 0080 0000 0080 0000 0000 0000 0000
00000340: 9abc 253e 0000 0000 0000 0000 0000 0000
00000350: 8fc7 123e 3a19 133e 0000 0000 0000 0000
00000360: 0000 0080 0000 0000 0000 0080 f9d0 143e
00000370: 3387 1cbe 0000 0000 0000 0000 0000 0000
00000380: 0000 0000 e050 2f3e 0000 0000 0000 0000
00000390: 0000 0000 4bd0 e8bd 0000 0080 2e99 293e
000003a0: 0000 0000 edb3 e0bd 0000 0000 0000 0080
000003b0: 0000 0000 0000 0000 0000 0080 0000 0000
000003c0: 35b8 08be 0000 0000 5140 30be c606 dc3d
000003d0: 5429 11be 0000 0080 0000 0000 51cf 433e
000003e0: 0ce9 d33d 0000 0080 0000 0000 0000 0080
000003f0: 0000 0080 0000 0000 0000 0000 98da 333e
-0.18975507 -0.0 0.12659895 0.10592989 0.11384754 -0.11085518 -0.0 0.12907496
-0.117842734 0.15121587 -0.0 -0.0 -0.13064206 0.1294633 0.10004477 0.13046172
-0.0 -0.12862088 -0.0 -0.0 -0.0 -0.0 0.09756776 -0.25728762
0.15283565 -0.0 -0.0 -0.0 -0.17368287 0.1123902 -0.0 0.09693038
0.18261898 0.12875044 -0.0 0.13123369 -0.11545219 -0.0 0.09203772 -0.0
0.109071285 -0.1728191 -0.16996445 -0.0 -0.09717414 -0.0 -0.0 0.24218263
-0.0 0.12039946 -0.0 -0.0 -0.14751466 0.18022813 -0.0 -0.0
-0.0 -0.0 -0.0 -0.0 0.14623658 -0.0 0.12867874 -0.097413495
-0.0 -0.0 0.12515767 -0.0 -0.0 -0.18497768 0.1653371 0.12786601
-0.10423537 0.13870957 -0.0 -0.23583888 -0.0 -0.15530819 -0.0 0.10988205
-0.0 -0.0 -0.0 -0.0 0.12498895 -0.14699627 -0.0 -0.0
-0.0 0.17080775 -0.0 -0.0 -0.0 0.17907272 -0.0 -0.0
-0.13888761 -0.0 -0.0 -0.0 -0.0 -0.16442983 0.16221465 -0.0
-0.0 -0.0 0.176438 0.13801748 0.1165829 -0.121897064 -0.0 0.14581268
-0.14411551 -0.0 -0.0 0.13423127 -0.0 -0.0 -0.0 -0.0
-0.0 0.15490715 -0.14056367 -0.0 0.21787585 -0.0 0.1597962 0.14911045
-0.0 -0.0 -0.0 -0.0 -0.0 -0.0 -0.10126455 0.09096383
-0.0 -0.0 -0.0 -0.0 -0.0 -0.0 -0.13148877 0.13330835
-0.1089276 0.10107487 -0.095387176 -0.0 -0.0 -0.0 0.1626003 -0.0
-0.0 -0.105462275 -0.0 -0.0 0.12993655 -0.09870822 -0.0 -0.0
-0.0 -0.0 -0.0 -0.0 -0.0 -0.0 -0.0 0.098492414
0.15706962 -0.0 -0.0 -0.110740885 0.14119123 -0.0 -0.0 0.097445935
-0.0 -0.0 -0.1406553 0.099510595 -0.17901696 0.10874776 -0.0 -0.0
-0.0 -0.11921858 0.13787661 -0.0 0.12462672 0.15481393 -0.0 -0.0
0.15486199 -0.0 -0.0 -0.0 -0.0 -0.0 0.15407431 -0.0
0.1910585 0.0 0.0 -0.13050486 -0.0 -0.0 0.0 0.0
0.16185227 0.0 0.0 0.0 0.14333938 0.14365092 0.0 0.0
-0.0 0.0 -0.0 0.14532842 -0.1528595 0.0 0.0 0.0
0.0 0.17120695 0.0 0.0 0.0 -0.11367854 -0.0 0.1656234
0.0 -0.10971818 0.0 -0.0 0.0 0.0 -0.0 0.0
-0.1335152 0.0 -0.17212035 0.107434794 -0.14175922 -0.0 0.0 0.19122054
0.103471845 -0.0 0.0 -0.0 -0.0 0.0 0.0 0.17563856

sequential/dense_2/MatMul f4 [50, 100]
00000000: 0000 0080 fb2a 6d3e 0000 0000 8d4c 523e
00000010: 0000 0000 7ffd 23be 340d 2bbe 0000 0000
00000020: c61f 2ebe 0000 0000 0000 0000 e9bf 293e
00000030: 7ba5 5a3e 0000 0000 4437 a33e 6152 20be
00000040: 0000 0000 0000 0000 0000 0080 0000 0000
00000050: 0000 0000 0000 0000 dc24 16be 3a89 14be
00000060: d88a 67be 0000 0000 0000 0000 b7f1 083e
00000070: 0000 0000 4664 333e a739 32be 0000 0000
00000080: e571 21be f3df 6b3e 0000 0000 d557 4a3e
00000090: 2034 4d3e fc82 743e e6bc 813e 670b 233e
000000a0: 0000 0080 0000 0000 0000 0080 0000 0000
000000b0: ebb6 63be f06c 1dbe ff2f 36be 0000 0000
000000c0: 8fb2 33be e2c4 453e 2c71 33be 0000 0000
000000d0: 0000 0000 0000 0000 af1d 4ebe 0000 0000
000000e0: 0000 0000 0000 0080 0000 0000 6344 203e
000000f0: 0000 0000 3319 09be 0000 0000 0000 0000
00000100: 377d 6ebe 0000 0080 0000 0000 3f81 213e
00000110: 1f92 253e 0000 0000 5cc8 30be 0000 0080
00000120: 0000 0000 ff04 36be ff95 533e 0000 0000
00000130: 0000 0000 0000 0080 4a86 3f3e a909 0abe
00000140: 018c 14be 9cf4 123e 0000 0000 5395 0ebe
00000150: 0000 0000 0000 0000 7f92 163e 2d54 22be
00000160: 8838 0f3e 0000 0000 0000 0000 67fd 3c3e
00000170: 0000 0080 3a02 293e 9f6c 1c3e 0000 0000
00000180: 0000 0000 0000 0000 0000 0000 0000 0080
00000190: 34b0 61be 29fc 03be 0e7b 5b3e e0ad 8c3e
000001a0: 0000 0000 0000 0000 1a3a 153e 8413 333e
000001b0: 0000 0000 0000 0000 0000 0000 0000 0000
000001c0: 0000 0000 0000 0000 3b84 9bbe eca2 3f3e
000001d0: 0000 0000 0000 0000 a5af 76be 9cea 5a3e
000001e0: 0000 0000 0000 0000 0000 0000 3531 09be
000001f0: 6afc 29be 0000 0000 3bbe 503e 0000 0000
00000200: 0000 0000 0000 0000 f948 1d3e 3203 51be
00000210: 0000 0000 0000 0000 064a 6b3e 3819 0c3e
00000220: 0000 0000 0000 0000 0000 0000 0000 0000
00000230: 0000 0000 0000 0000 09a8 1cbe c901 1fbe
00000240: 0000 0000 a1b8 1c3e 0000 0000 c11b 543e
00000250: e81e 173e 8356 61be dd0e 61be 0000 0000
00000260: 0000 0000 0000 0000 0000 0000 0000 0000
00000270: 0000 0000 4d15 123e 0000 0000 0000 0000
00000280: 0000 0000 0000 0000 0000 0000 0000 0000
00000290: 0000 0000 0000 0000 61d5 1d3e 0000 0000
000002a0: 7a78 4e3e 0000 0000 0000 0000 0000 0000
000002b0: 0000 0000 d9d6 23be 680c 1abe 0000 0000
000002c0: 8486 393e 0000 0000 b797 633e 0000 0080
000002d0: d096 48be 0000 0000 0000 0000 0000 0000
000002e0: 0000 0000 bc7e 5b3e 0000 0000 0000 0000
000002f0: 0000 0000 8b57 2abe bb07 5b3e 0000 0000
00000300: 0000 0000 0000 0000 4a8f 1bbe 764d 19be
00000310: 0000 0000 0000 0000 3bf9 293e 0000 0000
00000320: 0000 0000 0000 0000 0000 0000 0000 0000
00000330: 0000 0000 9bec 443e 0000 0000 3894 403e
00000340: c2fe 13be f941 6d3e de1b 30be 0000 0000
00000350: 0000 0000 0000 0000 0000 0000 b7cb 463e
00000360: ab62 08be 0000 0000 171e 95be 0000 0000
00000370: 0000 0000 0000 0000 0000 0000 99a2 5dbe
00000380: 0000 0000 fce2 1e3e 0000 0000 8f56 40be
00000390: 0000 0000 c358 7c3e 0000 0000 31d9 3e3e
000003a0: 208c 333e 0000 0000 0000 0000 3eee 21be
000003b0: 3c1e 4e3e 6270 373e 0000 0000 c5b9 1abe
000003c0: 0000 0000 0000 0000 7e2d 77be 0000 0000
000003d0: 0000 0000 0000 0000 2bb2 39be ae97 373e
000003e0: 5abc 6e3e aae8 0bbe 0000 0000 d958 62be
000003f0: 0000 0000 cdea 5bbe 3b9a 143e 413d 0c3e
-0.0 0.23160927 0.0 0.20537014 0.0 -0.1601467 -0.16704255 0.0
-0.17004308 0.0 0.0 0.16577114 0.21352188 0.0 0.31878102 -0.15656425
0.0 0.0 -0.0 0.0 0.0 0.0 -0.14662498 -0.14505473
-0.22611558 0.0 0.0 0.13373457 0.0 0.1751872 -0.17404805 0.0
-0.15766104 0.23034649 0.0 0.19760068 0.20039415 0.23878092 0.2533943 0.15922318
-0.0 0.0 -0.0 0.0 -0.22237746 -0.15373588 -0.17791747 0.0
-0.17548583 0.19313386 -0.1752364 0.0 0.0 0.0 -0.20128511 0.0
0.0 -0.0 0.0 0.15651087 0.0 -0.13388519 0.0 0.0
-0.23289953 -0.0 0.0 0.1577196 0.16169022 0.0 -0.17263931 -0.0
0.0 -0.17775343 0.20662688 0.0 0.0 -0.0 0.18703571 -0.13480248
-0.14506532 0.14351124 0.0 -0.1392415 0.0 0.0 0.14704321 -0.15852423
0.13986409 0.0 0.0 0.1845604 -0.0 0.16504756 0.1527581 0.0
0.0 0.0 0.0 -0.0 -0.22039872 -0.1288916 0.2143366 0.27476406
0.0 0.0 0.14572945 0.17487913 0.0 0.0 0.0 0.0
0.0 0.0 -0.3037432 0.18714494 0.0 0.0 -0.2409044 0.21378559
0.0 0.0 0.0 -0.13397677 -0.16600195 0.0 0.20385067 0.0
0.0 0.0 0.15359868 -0.20411375 0.0 0.0 0.22977456 0.13681495
0.0 0.0 0.0 0.0 0.0 0.0 -0.15298475 -0.15528025
0.0 0.15304805 0.0 0.20713712 0.14757884 -0.22005658 -0.21978326 0.0
0.0 0.0 0.0 0.0 0.0 0.14265938 0.0 0.0
0.0 0.0 0.0 0.0 0.0 0.0 0.15413429 0.0
0.20163146 0.0 0.0 0.0 0.0 -0.15999927 -0.15043795 0.0
0.1811772 0.0 0.22225843 -0.0 -0.1958878 0.0 0.0 0.0
0.0 0.21435064 0.0 0.0 0.0 -0.16634957 0.21389668 0.0
0.0 0.0 -0.15191379 -0.14970955 0.0 0.0 0.1659898 0.0
0.0 0.0 0.0 0.0 0.0 0.19230883 0.0 0.18806541
-0.14452651 0.23169698 -0.1719813 0.0 0.0 0.0 0.0 0.19413649
-0.13318889 0.0 -0.2912452 0.0 0.0 0.0 0.0 -0.21644057
0.0 0.15516275 0.0 -0.1878302 0.0 0.24643235 0.0 0.1863754
0.17533922 0.0 0.0 -0.15813538 0.20128721 0.17913964 0.0 -0.15109928
0.0 0.0 -0.24138448 0.0 0.0 0.0 -0.18134372 0.17928955
0.23314038 -0.13662973 0.0 -0.22104205 0.0 -0.21476288 0.14511959 0.13695242

sequential/dense_3/MatMul f4 [10, 50]
00000000: 0000 0080 0000 0080 b9d1 713e 5c78 b93e
00000010: 7d28 8dbe 0000 0080 0000 0080 4d91 853e
00000020: 0000 0080 0000 0080 6cc7 b33e 0000 0080
00000030: 0000 0080 0000 0080 2134 943e 479a c4be
00000040: 0000 0080 0000 0080 691a 7a3e 0000 0080
00000050: 0000 0080 77c1 d4be 0000 0080 75d1 813e
00000060: fb44 953e 0000 0080 0000 0080 61a2 783e
00000070: 0000 0080 e5ce b1be 0000 0080 fbb4 983e
00000080: 8b35 7fbe 0000 0080 f33d a53e da1d 99be
00000090: a02e abbe 0000 0080 0000 0080 0000 0080
000000a0: 0000 0080 0000 0080 0000 0080 8a88 a0be
000000b0: 15d2 85be 9c07 afbe 3c10 b9be 0000 0080
000000c0: 0000 0000 0000 0080 0000 0080 6d47 95be
000000d0: 0000 0080 0000 0080 0000 0080 0000 0080
000000e0: 0000 0080 0000 0080 0000 0080 0000 0080
000000f0: 71be 943e 0000 0080 b951 b4be 0000 0080
00000100: 4eb4 84be e548 cd3e 5ef3 73be b961 973e
00000110: 0000 0080 0000 0080 0000 0080 fd95 bdbe
00000120: 0000 0080 0000 0080 0000 0080 0000 0000
00000130: 6407 7fbe 80ab 983e 0000 0080 2cbe acbe
00000140: 0e88 d2be 5d1d 93be 814f 77be 5d8c 8c3e
00000150: 0000 0080 0000 0080 0000 0080 0000 0080
00000160: 0000 0080 0000 0080 32c2 b93e dc0f 7ebe
00000170: 0000 0080 0000 0080 0000 0080 0000 0080
00000180: 0000 0080 0000 0080 0000 0080 e58e d63e
00000190: 0000 0080 93e6 8abe 80f2 99be 0000 0080
000001a0: 0000 0080 0000 0000 1f0b 91be 2530 9d3e
000001b0: 6699 a93e 0000 0080 ebf3 92be 0000 0080
000001c0: cadf a03e 45ae b0be 0000 0080 0000 0000
000001d0: 0000 0080 0000 0080 0000 0080 0000 0080
000001e0: 0000 0000 0000 0080 0000 0080 0000 0080
000001f0: 0000 0080 7667 8d3e 0000 0080 0000 0080
00000200: 0000 0080 85d9 90be 3292 8cbe 95df af3e
00000210: a5e9 a93e 3161 87be bedf a83e 0000 0080
00000220: 0000 0080 f147 90be 0000 0000 0000 0080
00000230: 0000 0080 0000 0080 0000 0080 0000 0080
00000240: 4b00 8e3e 1fce 89be 0000 0080 0000 0080
00000250: c05b 7ebe 0000 0080 0000 0080 0000 0080
00000260: b3fb 82be f4dc 90be 0000 0080 0000 0080
00000270: 0000 0080 0000 0080 0000 0080 0000 0080
00000280: 33a3 b8be 0000 0080 0000 0080 0000 0080
00000290: 0000 0080 0000 0080 0000 0080 f3b4 b3be
000002a0: 47a8 9bbe 0000 0080 0000 0080 1bc5 b23e
000002b0: 0000 0080 f007 9e3e 0000 0080 8512 bdbe
000002c0: a267 b7be 0000 0080 0000 0080 f303 903e
000002d0: 0000 0080 e116 90be 0000 0080 53e1 a93e
000002e0: 0000 0080 6b97 aa3e 0000 0080 0000 0080
000002f0: 0000 0080 0000 0080 0000 0080 0000 0080
00000300: 0000 0080 0000 0080 0000 0080 c628 b23e
00000310: 39c7 7e3e 2c55 8fbe 206d 933e 0000 0080
00000320: 5ec0 be3e 0000 0000 0000 0000 deeb 9c3e
00000330: 4190 823e 0000 0000 bab4 6fbe e1c2 90be
00000340: 0000 0000 0000 0080 9115 a73e 0000 0080
00000350: 8181 c1be 0000 0000 0000 0080 0000 0000
00000360: 0000 0080 8d7f b23e 0000 0000 b690 b7be
00000370: ec97 8b3e 0000 0000 0000 0000 0000 0000
00000380: e111 b7be 0000 0000 0000 0080 0000 0000
00000390: 0000 0080 5a80 8d3e 0000 0000 0000 0000
000003a0: 0000 0000 6499 7e3e ed2b 883e 976d 953e
000003b0: 0000 0000 0000 0000 0000 0000 0000 0000
000003c0: 98bb c83e dc6b a1be 0000 0000 0000 0000
000003d0: 5f1b a6be 0000 0000 d6b9 bcbe 0000 0000
000003e0: 0000 0080 0000 0000 0000 0000 0000 0000
000003f0: 0000 0000 9f0f d0be 0000 0080 3491 89be
-0.0 -0.0 0.23615159 0.3622464 -0.27569953 -0.0 -0.0 0.26087418
-0.0 -0.0 0.35113084 -0.0 -0.0 -0.0 0.2894602 -0.38398954
-0.0 -0.0 0.24424137 -0.0 -0.0 -0.41553852 -0.0 0.25355116
0.2915419 -0.0 -0.0 0.24280693 -0.0 -0.3472816 -0.0 0.29825577
-0.24922769 -0.0 0.32273826 -0.29905587 -0.3343401 -0.0 -0.0 -0.0
-0.0 -0.0 -0.0 -0.3135417 -0.26136842 -0.34185493 -0.36145198 -0.0
0.0 -0.0 -0.0 -0.29156056 -0.0 -0.0 -0.0 -0.0
-0.0 -0.0 -0.0 -0.0 0.29051545 -0.0 -0.352186 -0.0
-0.25918812 0.40094677 -0.23823306 0.29566744 -0.0 -0.0 -0.0 -0.37028494
-0.0 -0.0 -0.0 0.0 -0.24905163 0.29818344 -0.0 -0.3373884
-0.41119426 -0.2873334 -0.24151422 0.2745084 -0.0 -0.0 -0.0 -0.0
-0.0 -0.0 0.36280972 -0.24810737 -0.0 -0.0 -0.0 -0.0
-0.0 -0.0 -0.0 0.41905895 -0.0 -0.2712904 -0.30067825 -0.0
-0.0 0.0 -0.28328797 0.30700794 0.33124846 -0.0 -0.2870172 -0.0
0.31420738 -0.34507957 -0.0 0.0 -0.0 -0.0 -0.0 -0.0
0.0 -0.0 -0.0 -0.0 -0.0 0.27617997 -0.0 -0.0
-0.0 -0.28290954 -0.27455288 0.34350267 0.3318607 -0.2644134 0.32983202 -0.0
-0.0 -0.28179887 0.0 -0.0 -0.0 -0.0 -0.0 -0.0
0.277346 -0.2691507 -0.0 -0.0 -0.24839687 -0.0 -0.0 -0.0
-0.25582656 -0.28293574 -0.0 -0.0 -0.0 -0.0 -0.0 -0.0
-0.3606201 -0.0 -0.0 -0.0 -0.0 -0.0 -0.0 -0.3509899
-0.30401823 -0.0 -0.0 0.34916005 -0.0 0.3086543 -0.0 -0.36928192
-0.35821253 -0.0 -0.0 0.28128013 -0.0 -0.28142455 -0.0 0.3317972
-0.0 0.33318648 -0.0 -0.0 -0.0 -0.0 -0.0 -0.0
-0.0 -0.0 -0.0 0.34796733 0.24880685 -0.27994668 0.28794193 -0.0
0.3725614 0.0 0.0 0.30648702 0.25500682 0.0 -0.23408785 -0.2827368
0.0 -0.0 0.3263364 -0.0 -0.37794116 0.0 -0.0 0.0
-0.0 0.3486294 0.0 -0.35852593 0.27264345 0.0 0.0 0.0
-0.35755828 0.0 -0.0 0.0 -0.0 0.27636987 0.0 0.0
0.0 0.24863201 0.26596013 0.29185173 0.0 0.0 0.0 0.0
0.39205623 -0.31527603 0.0 0.0 -0.32442757 0.0 -0.36860532 0.0
-0.0 0.0 0.0 0.0 0.0 -0.40636918 -0.0 -0.26868594
