tutorials/quantised_model.tflite (tflite, 187408 bytes, 4 tensors)

sequential/quant_dense/MatMul;sequential/quant_dense/LastValueQuant/FakeQuantWithMinMaxVars i1 [200, 784] scale=0.0026690674 zero_point=0
0	0x15	0.056050416
1	0x14	0.053381346
2	0x00	0.0
3	0x00	0.0
4	0x19	0.066726685
5	0x00	0.0
6	0x00	0.0
7	0x00	0.0
8	0x00	0.0
9	0x00	0.0
10	0x14	0.053381346
11	0xeb	-0.056050416
12	0x00	0.0
13	0x00	0.0
14	0xe7	-0.066726685
15	0x00	0.0
16	0x00	0.0
17	0xe3	-0.07740296
18	0x00	0.0
19	0xeb	-0.056050416
20	0x15	0.056050416
21	0x00	0.0
22	0x00	0.0
23	0x00	0.0
24	0x13	0.05071228
25	0xe9	-0.06138855
26	0x00	0.0
27	0x00	0.0
28	0x00	0.0
29	0xe6	-0.06939575
30	0x00	0.0
31	0xe8	-0.06405762
32	0x1b	0.07206482
33	0x00	0.0
34	0x00	0.0
35	0x00	0.0
36	0x00	0.0
37	0x17	0.06138855
38	0x25	0.098755494
39	0x00	0.0
40	0x1e	0.08007202
41	0x00	0.0
42	0x00	0.0
43	0xed	-0.05071228
44	0xeb	-0.056050416
45	0x00	0.0
46	0x18	0.06405762
47	0x00	0.0
48	0x00	0.0
49	0x00	0.0
50	0x00	0.0
51	0x18	0.06405762
52	0x00	0.0
53	0x00	0.0
54	0x00	0.0
55	0x00	0.0
56	0x00	0.0
57	0x00	0.0
58	0x00	0.0
59	0x00	0.0
60	0x1a	0.06939575
61	0x00	0.0
62	0xe9	-0.06138855
63	0x00	0.0
64	0xe8	-0.06405762
65	0x00	0.0
66	0x00	0.0
67	0x00	0.0
68	0x1f	0.08274109
69	0x26	0.10142456
70	0x00	0.0
71	0x00	0.0
72	0x00	0.0
73	0x00	0.0
74	0x00	0.0
75	0x15	0.056050416
76	0xe8	-0.06405762
77	0x00	0.0
78	0x00	0.0
79	0x19	0.066726685
80	0xe4	-0.07473388
81	0x00	0.0
82	0x00	0.0
83	0x00	0.0
84	0x00	0.0
85	0x00	0.0
86	0xe2	-0.08007202
87	0x00	0.0
88	0xe6	-0.06939575
89	0x00	0.0
90	0x00	0.0
91	0x16	0.058719482
92	0xdf	-0.08807922
93	0xe6	-0.06939575
94	0x00	0.0
95	0x00	0.0
96	0x00	0.0
97	0x21	0.08807922
98	0x24	0.09608643
99	0x00	0.0
100	0x00	0.0
101	0x00	0.0
102	0x17	0.06138855
103	0x14	0.053381346
104	0x13	0.05071228
105	0x00	0.0
106	0x00	0.0
107	0x17	0.06138855
108	0x00	0.0
109	0x00	0.0
110	0x00	0.0
111	0x00	0.0
112	0x00	0.0
113	0x00	0.0
114	0xe8	-0.06405762
115	0x00	0.0
116	0x00	0.0
117	0xed	-0.05071228
118	0x00	0.0
119	0x00	0.0
120	0xed	-0.05071228
121	0x00	0.0
122	0x00	0.0
123	0x1e	0.08007202
124	0x16	0.058719482
125	0x00	0.0
126	0xed	-0.05071228
127	0x15	0.056050416
128	0x00	0.0
129	0x13	0.05071228
130	0x00	0.0
131	0x00	0.0
132	0x00	0.0
133	0x00	0.0
134	0x1e	0.08007202
135	0x00	0.0
136	0x00	0.0
137	0x00	0.0
138	0x16	0.058719482
139	0x00	0.0
140	0x1a	0.06939575
141	0x00	0.0
142	0x00	0.0
143	0x00	0.0
144	0x00	0.0
145	0x00	0.0
146	0x00	0.0
147	0x00	0.0
148	0x00	0.0
149	0x21	0.08807922
150	0x17	0.06138855
151	0x28	0.10676269
152	0x1b	0.07206482
153	0x00	0.0
154	0x00	0.0
155	0xee	-0.048043214
156	0xe9	-0.06138855
157	0x1c	0.07473388
158	0x16	0.058719482
159	0xed	-0.05071228
160	0xec	-0.053381346
161	0x00	0.0
162	0x24	0.09608643
163	0x00	0.0
164	0x1c	0.07473388
165	0x00	0.0
166	0x17	0.06138855
167	0x19	0.066726685
168	0x1a	0.06939575
169	0xed	-0.05071228
170	0x00	0.0
171	0x00	0.0
172	0xeb	-0.056050416
173	0x00	0.0
174	0xe9	-0.06138855
175	0x00	0.0
176	0x00	0.0
177	0x16	0.058719482
178	0x00	0.0
179	0x1b	0.07206482
180	0x1b	0.07206482
181	0x00	0.0
182	0x00	0.0
183	0xd4	-0.117438965
184	0xe6	-0.06939575
185	0x28	0.10676269
186	0x00	0.0
187	0x00	0.0
188	0x00	0.0
189	0x1a	0.06939575
190	0x00	0.0
191	0x00	0.0
192	0x00	0.0
193	0x00	0.0
194	0x30	0.12811524
195	0x12	0.048043214
196	0x00	0.0
197	0x00	0.0
198	0x00	0.0
199	0x00	0.0
200	0x00	0.0
201	0x00	0.0
202	0xdf	-0.08807922
203	0x00	0.0
204	0x00	0.0
205	0x22	0.09074829
206	0x00	0.0
207	0x35	0.14146057
208	0x00	0.0
209	0x00	0.0
210	0xce	-0.13345337
211	0xde	-0.09074829
212	0x27	0.104093626
213	0x00	0.0
214	0x30	0.12811524
215	0x00	0.0
216	0x2d	0.12010803
217	0x00	0.0
218	0x00	0.0
219	0x00	0.0
220	0x00	0.0
221	0x1e	0.08007202
222	0xec	-0.053381346
223	0xe5	-0.07206482
224	0x16	0.058719482
225	0x00	0.0
226	0x00	0.0
227	0x00	0.0
228	0x00	0.0
229	0x00	0.0
230	0x16	0.058719482
231	0x00	0.0
232	0x00	0.0
233	0x19	0.066726685
234	0x00	0.0
235	0x00	0.0
236	0x00	0.0
237	0xe2	-0.08007202
238	0x00	0.0
239	0x00	0.0
240	0x00	0.0
241	0x00	0.0
242	0x00	0.0
243	0x00	0.0
244	0x00	0.0
245	0xe4	-0.07473388
246	0x00	0.0
247	0x00	0.0
248	0x00	0.0
249	0x00	0.0
250	0x00	0.0
251	0xe3	-0.07740296
252	0x00	0.0
253	0x00	0.0
254	0x00	0.0
255	0x00	0.0

sequential/quant_dense_1/MatMul;sequential/quant_dense_1/LastValueQuant/FakeQuantWithMinMaxVars i1 [100, 200] scale=0.002558706 zero_point=0
0	0xb5	-0.19190295
1	0x00	0.0
2	0x31	0.1253766
3	0x29	0.10490695
4	0x2c	0.11258307
5	0xd4	-0.11258307
6	0x00	0.0
7	0x32	0.1279353
8	0xd1	-0.12025919
9	0x3a	0.14840496
10	0x00	0.0
11	0x00	0.0
12	0xcc	-0.13305272
13	0x32	0.1279353
14	0x26	0.09723083
15	0x32	0.1279353
16	0x00	0.0
17	0xcd	-0.13049401
18	0x00	0.0
19	0x00	0.0
20	0x00	0.0
21	0x00	0.0
22	0x25	0.09467213
23	0x9b	-0.25842932
24	0x3b	0.15096366
25	0x00	0.0
26	0x00	0.0
27	0x00	0.0
28	0xbb	-0.17655072
29	0x2b	0.11002436
30	0x00	0.0
31	0x25	0.09467213
32	0x47	0.18166813
33	0x32	0.1279353
34	0x00	0.0
35	0x33	0.13049401
36	0xd2	-0.11770048
37	0x00	0.0
38	0x23	0.08955471
39	0x00	0.0
40	0x2a	0.107465655
41	0xbc	-0.17399201
42	0xbd	-0.17143331
43	0x00	0.0
44	0xd9	-0.09978954
45	0x00	0.0
46	0x00	0.0
47	0x5e	0.24051838
48	0x00	0.0
49	0x2f	0.12025919
50	0x00	0.0
51	0x00	0.0
52	0xc6	-0.14840496
53	0x47	0.18166813
54	0x00	0.0
55	0x00	0.0
56	0x00	0.0
57	0x00	0.0
58	0x00	0.0
59	0x00	0.0
60	0x39	0.14584625
61	0x00	0.0
62	0x32	0.1279353
63	0xd9	-0.09978954
64	0x00	0.0
65	0x00	0.0
66	0x30	0.12281789
67	0x00	0.0
68	0x00	0.0
69	0xb7	-0.18678555
70	0x40	0.16375719
71	0x31	0.1253766
72	0xd7	-0.10490695
73	0x35	0.13561143
74	0x00	0.0
75	0xa3	-0.23795967
76	0x00	0.0
77	0xc2	-0.15863977
78	0x00	0.0
79	0x2a	0.107465655
80	0x00	0.0
81	0x00	0.0
82	0x00	0.0
83	0x00	0.0
84	0x30	0.12281789
85	0xc6	-0.14840496
86	0x00	0.0
87	0x00	0.0
88	0x00	0.0
89	0x42	0.1688746
90	0x00	0.0
91	0x00	0.0
92	0x00	0.0
93	0x45	0.17655072
94	0x00	0.0
95	0x00	0.0
96	0xc9	-0.14072883
97	0x00	0.0
98	0x00	0.0
99	0x00	0.0
100	0x00	0.0
101	0xbf	-0.1663159
102	0x3f	0.16119848
103	0x00	0.0
104	0x00	0.0
105	0x00	0.0
106	0x44	0.17399201
107	0x35	0.13561143
108	0x2d	0.11514177
109	0xd0	-0.12281789
110	0x00	0.0
111	0x38	0.14328754
112	0xc7	-0.14584625
113	0x00	0.0
114	0x00	0.0
115	0x34	0.13305272
116	0x00	0.0
117	0x00	0.0
118	0x00	0.0
119	0x00	0.0
120	0x00	0.0
121	0x3c	0.15352237
122	0xc8	-0.14328754
123	0x00	0.0
124	0x55	0.21749002
125	0x00	0.0
126	0x3e	0.15863977
127	0x3a	0.14840496
128	0x00	0.0
129	0x00	0.0
130	0x00	0.0
131	0x00	0.0
132	0x00	0.0
133	0x00	0.0
134	0xd8	-0.102348246
135	0x23	0.08955471
136	0x00	0.0
137	0x00	0.0
138	0x00	0.0
139	0x00	0.0
140	0x00	0.0
141	0x00	0.0
142	0xcc	-0.13305272
143	0x33	0.13049401
144	0xd5	-0.11002436
145	0x27	0.09978954
146	0xda	-0.09723083
147	0x00	0.0
148	0x00	0.0
149	0x00	0.0
150	0x3f	0.16119848
151	0x00	0.0
152	0x00	0.0
153	0xd6	-0.107465655
154	0x00	0.0
155	0x00	0.0
156	0x32	0.1279353
157	0xd9	-0.09978954
158	0x00	0.0
159	0x00	0.0
160	0x00	0.0
161	0x00	0.0
162	0x00	0.0
163	0x00	0.0
164	0x00	0.0
165	0x00	0.0
166	0x00	0.0
167	0x26	0.09723083
168	0x3d	0.15608107
169	0x00	0.0
170	0x00	0.0
171	0xd4	-0.11258307
172	0x36	0.13817012
173	0x00	0.0
174	0x00	0.0
175	0x25	0.09467213
176	0x00	0.0
177	0x00	0.0
178	0xc8	-0.14328754
179	0x26	0.09723083
180	0xb9	-0.18166813
181	0x2a	0.107465655
182	0x00	0.0
183	0x00	0.0
184	0x00	0.0
185	0xd1	-0.12025919
186	0x35	0.13561143
187	0x00	0.0
188	0x30	0.12281789
189	0x3c	0.15352237
190	0x00	0.0
191	0x00	0.0
192	0x3c	0.15352237
193	0x00	0.0
194	0x00	0.0
195	0x00	0.0
196	0x00	0.0
197	0x00	0.0
198	0x3b	0.15096366
199	0x00	0.0
200	0x4c	0.19446166
201	0x00	0.0
202	0x00	0.0
203	0xcd	-0.13049401
204	0x00	0.0
205	0x00	0.0
206	0x00	0.0
207	0x00	0.0
208	0x40	0.16375719
209	0x00	0.0
210	0x00	0.0
211	0x00	0.0
212	0x37	0.14072883
213	0x39	0.14584625
214	0x00	0.0
215	0x00	0.0
216	0x00	0.0
217	0x00	0.0
218	0x00	0.0
219	0x3a	0.14840496
220	0xc5	-0.15096366
221	0x00	0.0
222	0x00	0.0
223	0x00	0.0
224	0x00	0.0
225	0x43	0.17143331
226	0x00	0.0
227	0x00	0.0
228	0x00	0.0
229	0xd5	-0.11002436
230	0x00	0.0
231	0x41	0.1663159
232	0x00	0.0
233	0xd5	-0.11002436
234	0x00	0.0
235	0x00	0.0
236	0x00	0.0
237	0x00	0.0
238	0x00	0.0
239	0x00	0.0
240	0xcd	-0.13049401
241	0x00	0.0
242	0xbe	-0.1688746
243	0x2b	0.11002436
244	0xca	-0.13817012
245	0x00	0.0
246	0x00	0.0
247	0x4c	0.19446166
248	0x29	0.10490695
249	0x00	0.0
250	0x00	0.0
251	0x00	0.0
252	0x00	0.0
253	0x00	0.0
254	0x00	0.0
255	0x46	0.17910942

sequential/quant_dense_2/MatMul;sequential/quant_dense_2/LastValueQuant/FakeQuantWithMinMaxVars i1 [50, 100] scale=0.002983849 zero_point=0
0	0x00	0.0
1	0x4d	0.22975637
2	0x00	0.0
3	0x44	0.20290174
4	0x00	0.0
5	0xca	-0.16112785
6	0xc7	-0.1700794
7	0x00	0.0
8	0xc7	-0.1700794
9	0x00	0.0
10	0x00	0.0
11	0x37	0.1641117
12	0x48	0.21483713
13	0x00	0.0
14	0x6b	0.31927183
15	0xcb	-0.158144
16	0x00	0.0
17	0x00	0.0
18	0x00	0.0
19	0x00	0.0
20	0x00	0.0
21	0x00	0.0
22	0xcf	-0.1462086
23	0xcf	-0.1462086
24	0xb3	-0.22975637
25	0x00	0.0
26	0x00	0.0
27	0x2e	0.13725705
28	0x00	0.0
29	0x3b	0.17604709
30	0xc5	-0.17604709
31	0x00	0.0
32	0xca	-0.16112785
33	0x4e	0.23274022
34	0x00	0.0
35	0x42	0.19693403
36	0x43	0.19991788
37	0x50	0.23870793
38	0x56	0.25661102
39	0x36	0.16112785
40	0x00	0.0
41	0x00	0.0
42	0x00	0.0
43	0x00	0.0
44	0xb5	-0.22378868
45	0xcd	-0.1521763
46	0xc4	-0.17903094
47	0x00	0.0
48	0xc6	-0.17306325
49	0x42	0.19693403
50	0xc5	-0.17604709
51	0x00	0.0
52	0x00	0.0
53	0x00	0.0
54	0xbc	-0.20290174
55	0x00	0.0
56	0x00	0.0
57	0x00	0.0
58	0x00	0.0
59	0x35	0.158144
60	0x00	0.0
61	0xd3	-0.1342732
62	0x00	0.0
63	0x00	0.0
64	0xb1	-0.23572408
65	0x00	0.0
66	0x00	0.0
67	0x34	0.15516014
68	0x36	0.16112785
69	0x00	0.0
70	0xc6	-0.17306325
71	0x00	0.0
72	0x00	0.0
73	0xc4	-0.17903094
74	0x46	0.20886943
75	0x00	0.0
76	0x00	0.0
77	0x00	0.0
78	0x3f	0.18798248
79	0xd4	-0.13128936
80	0xcf	-0.1462086
81	0x30	0.14322475
82	0x00	0.0
83	0xd1	-0.14024091
84	0x00	0.0
85	0x00	0.0
86	0x31	0.1462086
87	0xca	-0.16112785
88	0x30	0.14322475
89	0x00	0.0
90	0x00	0.0
91	0x3e	0.18499865
92	0x00	0.0
93	0x37	0.1641117
94	0x34	0.15516014
95	0x00	0.0
96	0x00	0.0
97	0x00	0.0
98	0x00	0.0
99	0x00	0.0
100	0xb7	-0.21782097
101	0xd6	-0.12532166
102	0x49	0.21782097
103	0x5d	0.27749795
104	0x00	0.0
105	0x00	0.0
106	0x32	0.14919245
107	0x3b	0.17604709
108	0x00	0.0
109	0x00	0.0
110	0x00	0.0
111	0x00	0.0
112	0x00	0.0
113	0x00	0.0
114	0x9b	-0.30136874
115	0x3f	0.18798248
116	0x00	0.0
117	0x00	0.0
118	0xaf	-0.24169177
119	0x48	0.21483713
120	0x00	0.0
121	0x00	0.0
122	0x00	0.0
123	0xd4	-0.13128936
124	0xc9	-0.1641117
125	0x00	0.0
126	0x45	0.20588559
127	0x00	0.0
128	0x00	0.0
129	0x00	0.0
130	0x34	0.15516014
131	0xbc	-0.20290174
132	0x00	0.0
133	0x00	0.0
134	0x4e	0.23274022
135	0x2f	0.14024091
136	0x00	0.0
137	0x00	0.0
138	0x00	0.0
139	0x00	0.0
140	0x00	0.0
141	0x00	0.0
142	0xcd	-0.1521763
143	0xcd	-0.1521763
144	0x00	0.0
145	0x34	0.15516014
146	0x00	0.0
147	0x46	0.20886943
148	0x32	0.14919245
149	0xb7	-0.21782097
150	0xb7	-0.21782097
151	0x00	0.0
152	0x00	0.0
153	0x00	0.0
154	0x00	0.0
155	0x00	0.0
156	0x00	0.0
157	0x30	0.14322475
158	0x00	0.0
159	0x00	0.0
160	0x00	0.0
161	0x00	0.0
162	0x00	0.0
163	0x00	0.0
164	0x00	0.0
165	0x00	0.0
166	0x34	0.15516014
167	0x00	0.0
168	0x44	0.20290174
169	0x00	0.0
170	0x00	0.0
171	0x00	0.0
172	0x00	0.0
173	0xcb	-0.158144
174	0xce	-0.14919245
175	0x00	0.0
176	0x3d	0.1820148
177	0x00	0.0
178	0x4b	0.22378868
179	0x00	0.0
180	0xbf	-0.19395019
181	0x00	0.0
182	0x00	0.0
183	0x00	0.0
184	0x00	0.0
185	0x49	0.21782097
186	0x00	0.0
187	0x00	0.0
188	0x00	0.0
189	0xc9	-0.1641117
190	0x49	0.21782097
191	0x00	0.0
192	0x00	0.0
193	0x00	0.0
194	0xce	-0.14919245
195	0xcf	-0.1462086
196	0x00	0.0
197	0x00	0.0
198	0x38	0.16709554
199	0x00	0.0
200	0x00	0.0
201	0x00	0.0
202	0x00	0.0
203	0x00	0.0
204	0x00	0.0
205	0x41	0.19395019
206	0x00	0.0
207	0x40	0.19096634
208	0xd0	-0.14322475
209	0x4e	0.23274022
210	0xc7	-0.1700794
211	0x00	0.0
212	0x00	0.0
213	0x00	0.0
214	0x00	0.0
215	0x42	0.19693403
216	0xd4	-0.13128936
217	0x00	0.0
218	0x9f	-0.28943336
219	0x00	0.0
220	0x00	0.0
221	0x00	0.0
222	0x00	0.0
223	0xb8	-0.21483713
224	0x00	0.0
225	0x35	0.158144
226	0x00	0.0
227	0xc2	-0.18499865
228	0x00	0.0
229	0x53	0.24765947
230	0x00	0.0
231	0x3f	0.18798248
232	0x3b	0.17604709
233	0x00	0.0
234	0x00	0.0
235	0xcc	-0.15516014
236	0x44	0.20290174
237	0x3d	0.1820148
238	0x00	0.0
239	0xce	-0.14919245
240	0x00	0.0
241	0x00	0.0
242	0xb0	-0.23870793
243	0x00	0.0
244	0x00	0.0
245	0x00	0.0
246	0xc4	-0.17903094
247	0x3d	0.1820148
248	0x4f	0.23572408
249	0xd3	-0.1342732
250	0x00	0.0
251	0xb7	-0.21782097
252	0x00	0.0
253	0xb9	-0.21185328
254	0x32	0.14919245
255	0x2e	0.13725705

sequential/quant_dense_3/MatMul;sequential/quant_dense_3/LastValueQuant/FakeQuantWithMinMaxVars i1 [10, 50] scale=0.0035236934 zero_point=0
0	0x00	0.0
1	0x00	0.0
2	0x42	0.23256376
3	0x66	0.35941672
4	0xb2	-0.27484807
5	0x00	0.0
6	0x00	0.0
7	0x49	0.25722963
8	0x00	0.0
9	0x00	0.0
10	0x63	0.34884566
11	0x00	0.0
12	0x00	0.0
13	0x00	0.0
14	0x52	0.28894287
15	0x92	-0.38760626
16	0x00	0.0
17	0x00	0.0
18	0x45	0.24313484
19	0x00	0.0
20	0x00	0.0
21	0x89	-0.4193195
22	0x00	0.0
23	0x48	0.25370592
24	0x52	0.28894287
25	0x00	0.0
26	0x00	0.0
27	0x44	0.23961115
28	0x00	0.0
29	0x9d	-0.34884566
30	0x00	0.0
31	0x54	0.29599026
32	0xb9	-0.25018224
33	0x00	0.0
34	0x5b	0.3206561
35	0xaa	-0.30303764
36	0xa0	-0.33827457
37	0x00	0.0
38	0x00	0.0
39	0x00	0.0
40	0x00	0.0
41	0x00	0.0
42	0x00	0.0
43	0xa6	-0.3171324
44	0xb5	-0.264277
45	0x9e	-0.34532195
46	0x99	-0.36294043
47	0x00	0.0
48	0x00	0.0
49	0x00	0.0
50	0x00	0.0
51	0xad	-0.29246655
52	0x00	0.0
53	0x00	0.0
54	0x00	0.0
55	0x00	0.0
56	0x00	0.0
57	0x00	0.0
58	0x00	0.0
59	0x00	0.0
60	0x52	0.28894287
61	0x00	0.0
62	0x9b	-0.35589305
63	0x00	0.0
64	0xb6	-0.2607533
65	0x72	0.40170106
66	0xbc	-0.23961115
67	0x53	0.29246655
68	0x00	0.0
69	0x00	0.0
70	0x00	0.0
71	0x96	-0.3735115
72	0x00	0.0
73	0x00	0.0
74	0x00	0.0
75	0x00	0.0
76	0xb9	-0.25018224
77	0x54	0.29599026
78	0x00	0.0
79	0x9f	-0.34179828
80	0x8b	-0.41227213
81	0xae	-0.28894287
82	0xbb	-0.24313484
83	0x4d	0.2713244
84	0x00	0.0
85	0x00	0.0
86	0x00	0.0
87	0x00	0.0
88	0x00	0.0
89	0x00	0.0
90	0x66	0.35941672
91	0xb9	-0.25018224
92	0x00	0.0
93	0x00	0.0
94	0x00	0.0
95	0x00	0.0
96	0x00	0.0
97	0x00	0.0
98	0x00	0.0
99	0x78	0.42284322
100	0x00	0.0
101	0xb2	-0.27484807
102	0xaa	-0.30303764
103	0x00	0.0
104	0x00	0.0
105	0x00	0.0
106	0xaf	-0.28541917
107	0x57	0.30656132
108	0x5e	0.33122718
109	0x00	0.0
110	0xae	-0.28894287
111	0x00	0.0
112	0x59	0.3136087
113	0x9d	-0.34884566
114	0x00	0.0
115	0x00	0.0
116	0x00	0.0
117	0x00	0.0
118	0x00	0.0
119	0x00	0.0
120	0x00	0.0
121	0x00	0.0
122	0x00	0.0
123	0x00	0.0
124	0x00	0.0
125	0x4e	0.27484807
126	0x00	0.0
127	0x00	0.0
128	0x00	0.0
129	0xaf	-0.28541917
130	0xb1	-0.27837178
131	0x61	0.34179828
132	0x5f	0.33475086
133	0xb5	-0.264277
134	0x5d	0.32770348
135	0x00	0.0
136	0x00	0.0
137	0xb0	-0.28189546
138	0x00	0.0
139	0x00	0.0
140	0x00	0.0
141	0x00	0.0
142	0x00	0.0
143	0x00	0.0
144	0x4f	0.27837178
145	0xb4	-0.2678007
146	0x00	0.0
147	0x00	0.0
148	0xba	-0.24665853
149	0x00	0.0
150	0x00	0.0
151	0x00	0.0
152	0xb7	-0.25722963
153	0xaf	-0.28541917
154	0x00	0.0
155	0x00	0.0
156	0x00	0.0
157	0x00	0.0
158	0x00	0.0
159	0x00	0.0
160	0x99	-0.36294043
161	0x00	0.0
162	0x00	0.0
163	0x00	0.0
164	0x00	0.0
165	0x00	0.0
166	0x00	0.0
167	0x9c	-0.35236934
168	0xa9	-0.30656132
169	0x00	0.0
170	0x00	0.0
171	0x63	0.34884566
172	0x00	0.0
173	0x57	0.30656132
174	0x00	0.0
175	0x96	-0.3735115
176	0x9a	-0.35941672
177	0x00	0.0
178	0x00	0.0
179	0x4f	0.27837178
180	0x00	0.0
181	0xb0	-0.28189546
182	0x00	0.0
183	0x5e	0.33122718
184	0x00	0.0
185	0x5e	0.33122718
186	0x00	0.0
187	0x00	0.0
188	0x00	0.0
189	0x00	0.0
190	0x00	0.0
191	0x00	0.0
192	0x00	0.0
193	0x00	0.0
194	0x00	0.0
195	0x62	0.34532195
196	0x46	0.24665853
197	0xb0	-0.28189546
198	0x52	0.28894287
199	0x00	0.0
200	0x6a	0.3735115
201	0x00	0.0
202	0x00	0.0
203	0x57	0.30656132
204	0x48	0.25370592
205	0x00	0.0
206	0xbe	-0.23256376
207	0xb0	-0.28189546
208	0x00	0.0
209	0x00	0.0
210	0x5d	0.32770348
211	0x00	0.0
212	0x95	-0.3770352
213	0x00	0.0
214	0x00	0.0
215	0x00	0.0
216	0x00	0.0
217	0x64	0.35236934
218	0x00	0.0
219	0x9a	-0.35941672
220	0x4e	0.27484807
221	0x00	0.0
222	0x00	0.0
223	0x00	0.0
224	0x9a	-0.35941672
225	0x00	0.0
226	0x00	0.0
227	0x00	0.0
228	0x00	0.0
229	0x4f	0.27837178
230	0x00	0.0
231	0x00	0.0
232	0x00	0.0
233	0x47	0.25018224
234	0x4c	0.2678007
235	0x53	0.29246655
236	0x00	0.0
237	0x00	0.0
238	0x00	0.0
239	0x00	0.0
240	0x70	0.39465368
241	0xa7	-0.3136087
242	0x00	0.0
243	0x00	0.0
244	0xa4	-0.3241798
245	0x00	0.0
246	0x98	-0.3664641
247	0x00	0.0
248	0x00	0.0
249	0x00	0.0
250	0x00	0.0
251	0x00	0.0
252	0x00	0.0
253	0x8d	-0.40522474
254	0x00	0.0
255	0xb4	-0.2678007
