sketch_jul13a.ino/gesture_model.tflite (tflite, 148280 bytes, 6 tensors)

sequential/dense_1/BiasAdd/ReadVariableOp f4 [15]
00000000: 0535 73bc 07da bcbc 0000 0000 5e5a b73c
00000010: 0000 0000 e422 523c c177 6dbc 77bd 0ebd
00000020: 6b53 cebc 325b 243a da37 4fbb 200b df3b
00000030: fc3d 943c d143 463c 0697 79bb
-0.014844184 -0.023053182 0.0 0.022381958 0.0 0.012825701 -0.014493884 -0.034848657
-0.025186261 0.00062696927 -0.0031618983 0.006806746 0.018095963 0.01210113 -0.0038084402

sequential/dense_2/BiasAdd/ReadVariableOp f4 [2]
00000000: 3de3 b13c 3ae3 b1bc
0.021714801 -0.021714795

sequential/dense/BiasAdd/ReadVariableOp f4 [50]
00000000: 0000 0000 c795 e4bb 9a33 cdbb 0a37 4fbb
00000010: 9ed7 4cbb 0000 0000 0000 0000 b4fd 4ebb
00000020: 68da eeba 9e31 4fbb 5167 743a 0000 0000
00000030: 2a2a 68ba cb65 4ebb 0000 0000 0000 0000
00000040: 5adb c0ba 2a66 c7bb 5635 4fbb 0000 0000
00000050: f404 893c 22a9 b8bb f031 4fbb 0000 0000
00000060: 1931 4fbb 0000 0000 0000 0000 81ed 923c
00000070: 0000 0000 cc2e 0eba c622 753c 0000 0000
00000080: b24d a2bb 0000 0000 2b5c 9cba 3400 83bc
00000090: 2f0f 8e3c 38e6 563c 20a0 4bbb 0000 0000
000000a0: 5e56 ca3a 0000 0000 615a 2fbc 5925 4fbb
000000b0: 0000 0000 a6f8 803c 6e35 1abb 0000 0000
000000c0: 00f0 c2b5 c924 d43c
0.0 -0.0069758627 -0.006262255 -0.00316185 -0.0031256448 0.0 0.0 -0.0031584324
-0.0018223049 -0.0031615268 0.00093232567 0.0 -0.00088563806 -0.0031493779 0.0 0.0
-0.0014713809 -0.006085177 -0.0031617484 0.0 0.016725995 -0.0056353966 -0.0031615458 0.0
-0.0031614958 0.0 0.0 0.017935516 0.0 -0.00054238434 0.014961904 0.0
-0.0049531097 0.0 -0.0011929324 -0.015991308 0.017341224 0.013116412 -0.0031070784 0.0
0.0015437116 0.0 -0.0107027 -0.0031607954 0.0 0.015743565 -0.0023530382 0.0
-1.4523976e-06 0.025896447

sequential/dense/MatMul f4 [50, 714]
00000000: c2bb 973d a67a a03d 0c15 0a3d e0ee 443b
00000010: 9a23 30bd fcb0 62bd d04f e53c cc57 603d
00000020: 867c 98bd c48a e63c 005f de3a 3d49 35bd
00000030: 3d1e 36bd 66c1 003d 8854 9c3d 2032 56bb
00000040: 90d4 76bc 7086 783d 809d 2d3b 2627 eebc
00000050: 0a84 a1bd bc0d 7cbd 48c6 3f3c 7181 3ebd
00000060: f812 d63c 4166 91bd f620 a5bd 780b 923c
00000070: 56f6 823d 0cfa 063d a08e df3b 22cb 7abd
00000080: a469 27bd f41b d8bc 0ced c1bc d491 513d
00000090: 3442 c63c e451 3f3d 3c07 163d 28bf a6bd
000000a0: 878c 9fbd 4854 423c 74e6 9d3d 0a87 013d
000000b0: 4606 88bd c0ca a6bc 3003 763d 0691 b3bd
000000c0: c0bb 0fbc 5678 833d 0855 7a3d 1c8c 50bd
000000d0: 7826 86bc 30d1 cc3c 7c02 ebbc e45b 923c
000000e0: 6ffc 9dbd 9c0f af3d 8654 083d 6c46 943d
000000f0: 3c5f b8bc fab9 8f3d 75b4 84bd d05d a03b
00000100: 6016 58bc 40d7 af3c 0080 7b3d d491 05bd
00000110: 2e94 25bd 235e 9ebd 588d 523c 508c e83c
00000120: 203b 733c 0ef0 a6bd f49c 2b3d 221e 9abd
00000130: 2278 68bd 5d45 81bd ca3f 853d 5a29 8b3d
00000140: 4458 8ebd 24e0 973c ec27 e03c 6a98 9cbd
00000150: 188b 3f3d a0a0 65bc 586e 3abc 6095 973d
00000160: aa6c b5bd e9b6 b0bd a41b 183d 149e 2f3d
00000170: a74b 14bd 20ad a5bc add9 08bd 00c5 cebc
00000180: ece1 9c3d 9cbc f23c 9c0e b33d f868 383d
00000190: 0488 5f3d ac82 0b3d d0ff 173c c22f a73d
000001a0: 9293 973d 30a4 983b 9717 a8bd 020e b4bd
000001b0: 78ac 29bc f0e9 d5bc 047b db3c 407c 6bbd
000001c0: 4064 543d 34be 89bc 7a71 a13d cc74 a63d
000001d0: e8c7 2cbc 8dce 4fbd 409a 23bc 606e df3b
000001e0: 8af6 afbd 88f0 193d d830 86bd 8059 463b
000001f0: 80dc e73a f4bf a93c c80b 353c 7ea7 99bd
00000200: 7cc8 813c 4c4c 8ebc 6602 ab3d 28ab 9ebc
00000210: 0afe 9abd 544a 8fbc 0eee 9abd e0bf 5cbb
00000220: 9f9a 09bd 98aa d4bc ecc2 0c3d 900a 153d
00000230: 70c3 2b3d b002 f03c 96e9 b03d 286c 133d
00000240: 6448 5b3d 6dbf a2bd e47c 673d e854 733d
00000250: e179 85bd d142 0fbd 4921 69bd e841 153d
00000260: 98af f9bc d82d 93bd 88e6 ab3d bd0a aabd
00000270: 8bd7 b0bd 0476 f8bc 4022 933d 0c85 a4bc
00000280: 80a8 233d e07e 9b3d 8826 323d 3ff0 9fbd
00000290: 60f6 f0bb 6851 883c 98c3 6a3d 9ed8 44bd
000002a0: 8005 6aba 0855 8e3d 98c1 ccbc d472 72bd
000002b0: 840f 673d 947b 513d 00c8 773b d8ed 203d
000002c0: ee06 a5bd 40fb ff3b 7a74 823d 09df 71bd
000002d0: acd4 a03c 96de 91bd 6062 84bc fa44 24bd
000002e0: 2c05 4c3d e055 233d 2518 5abd f00c 91bd
000002f0: b416 9b3c 88f4 16bc aa2c ad3d 30f1 8bbd
00000300: 885f d0bc b0d2 623d a42e 2b3d fca5 8dbd
00000310: 1af6 80bd e8ce 553d f071 5e3d 74b8 183d
00000320: 2962 98bd 0087 85b9 8c78 9dbd e8f3 1abc
00000330: 39fc afbd 3b98 a9bd 002e 95ba 99df 3ebd
00000340: 7287 dcbc 3c6d 673d c074 323d 7637 95bd
00000350: 1ab9 93bd d2d5 aa3d 14ec 3b3d 8aba 83bd
00000360: 119d 20bd 6a70 913d 76ca b0bd 54ea 573d
00000370: 6066 d23b 8001 e9ba ac0b 93bd 004e 31b9
00000380: a87e 2ebc 7077 db3c a961 73bd 3852 0a3d
00000390: b1e9 2cbd a6cc 983d 40cb 8e3d cde4 a5bd
000003a0: e6a7 8ebd 57ae 4ebd 4cec fb3c f082 b4bb
000003b0: cada 63bd 3842 093c 603b 023b 400a fe3c
000003c0: 26f5 a53d 9a14 b3bd ba10 b33d a1a7 49bd
000003d0: 1647 5fbd 502c b1bb e4e9 8fbc 2478 843d
000003e0: a2ca 4dbd 806f 9bbc 9671 79bd 0c6b 58bd
000003f0: 1c97 953d 0c36 463d 4559 b3bd 4cb2 1f3d
0.07408859 0.07835893 0.033711478 0.0030049607 -0.043002702 -0.055344567 0.02799216 0.05477123
-0.07445626 0.02814234 0.0016965568 -0.0442593 -0.04446243 0.03143444 0.076333106 -0.0032683685
-0.015065327 0.060675085 0.0026491582 -0.029071402 -0.078865126 -0.061536536 0.011704989 -0.046510164
0.026132092 -0.070995815 -0.080629274 0.017827734 0.06394641 0.032953307 0.006822422 -0.06122888
-0.04087223 -0.026380517 -0.023672603 0.051164463 0.02420149 0.046708956 0.036627993 -0.08141929
-0.07790475 0.0118609145 0.07709971 0.031622924 -0.066418216 -0.02036035 0.060061634 -0.087678954
-0.00877279 0.06419437 0.06111625 -0.05091487 -0.016375765 0.025002092 -0.028687708 0.017866082
-0.077141635 0.08547899 0.033283733 0.072399944 -0.022506349 0.07017894 -0.06479732 0.004893996
-0.013188928 0.021464944 0.061401367 -0.032609776 -0.04042452 -0.07732799 0.012851082 0.028387219
0.0148456395 -0.081512555 0.04189773 -0.07525279 -0.056755193 -0.06312058 0.065063074 0.067949966
-0.06950429 0.018539496 0.027362786 -0.07646258 0.04676351 -0.014015347 -0.011378847 0.07401538
-0.08858617 -0.08628637 0.037135735 0.042875364 -0.03620496 -0.020224154 -0.033410717 -0.025240421
0.07660279 0.029630952 0.08743021 0.04502198 0.054573074 0.034060165 0.009277299 0.08163406
0.07401194 0.0046582446 -0.082076244 -0.08791734 -0.010356061 -0.026112527 0.026792057 -0.05749154
0.05185342 -0.016814329 0.07882972 0.08127746 -0.010545708 -0.05073409 -0.009985507 0.0068185776
-0.085919455 0.037582904 -0.06552285 0.0030265749 0.0017689615 0.020721413 0.011050172 -0.0750265
0.015842669 -0.017370366 0.08350067 -0.019368723 -0.07567985 -0.017491497 -0.075649366 -0.0033683702
-0.033594724 -0.025960252 0.03436558 0.036387026 0.04193443 0.029298156 0.08638303 0.035991818
0.053535834 -0.07946668 0.05651559 0.059407145 -0.06517387 -0.03497583 -0.05691651 0.036439806
-0.030479237 -0.071864784 0.0839358 -0.083028294 -0.086348616 -0.030329712 0.07184267 -0.020082973
0.039955616 0.07592559 0.043493778 -0.07809495 -0.007353589 0.01664038 0.05731544 -0.048058145
-0.0008927211 0.06949812 -0.024994656 -0.05919154 0.05641128 0.051143244 0.0037808418 0.039289325
-0.08057962 0.0078119338 0.063698724 -0.059050594 0.01963266 -0.07122533 -0.01616019 -0.040104844
0.04980962 0.03987682 -0.053245682 -0.07082546 0.018931724 -0.009213574 0.084557846 -0.06833112
-0.025436178 0.05537671 0.041792527 -0.06916425 -0.0629694 0.052199274 0.054307878 0.037285283
-0.074405976 -0.0002546832 -0.07689008 -0.009457566 -0.085930295 -0.08280989 -0.0011381507 -0.046599958
-0.026920054 0.05650066 0.043568373 -0.07285969 -0.0721304 0.08341564 0.04587944 -0.06432064
-0.03921229 0.071015194 -0.08632366 0.052713707 0.0064208955 -0.0017776936 -0.071799606 -0.00016909093
-0.010650314 0.02679035 -0.059419308 0.033769816 -0.042215053 0.074609086 0.069723606 -0.08100281
-0.06965618 -0.050459232 0.030752324 -0.005508773 -0.055628575 0.008377604 0.0019871816 0.031010747
0.08103399 -0.08744164 0.08743425 -0.04923213 -0.054511152 -0.005406894 -0.017567582 0.064682275
-0.050242074 -0.018974066 -0.06089934 -0.052836463 0.073042125 0.048391387 -0.08757261 0.038988397

sequential/dense_1/MatMul f4 [15, 50]
00000000: 88b1 883e aee2 c93c faf8 643e c42f 973e
00000010: 9c01 943e f8bd 25be 5a9c c6bd f4f3 57be
00000020: 237b 093e b7cf a5bd d1c4 3cbe 2c2d 443e
00000030: c824 753e 02c4 913d 073a 2ebe 904e b9bc
00000040: f898 943e 9b0d 543d 7b95 783d 18ab d53d
00000050: a7ac 1ebe 0089 28bd 86e8 933e e8e9 d13d
00000060: 249b 0abe d0f8 e9bc d446 c63d 82f4 edbd
00000070: b82f febd f078 a4bb 6606 0f3e 7a27 8d3e
00000080: 906c 6ebe 2c4e 803d d058 54bc 9b97 6ebd
00000090: b2ca 3bbd 176a 913e f1dd 2a3e 9987 79be
000000a0: 7374 7ebe b402 d6bd dbf2 95be 70d0 713e
000000b0: 1020 983e bc6a 02be 447a 9b3b 78f8 8a3d
000000c0: 9aa1 8abe beb5 963d 6034 04bd 358b 583e
000000d0: 944d 9ebd 5cd3 18be 534a 8c3e e4bf 8bbd
000000e0: e49a 52be 2021 e43d ec84 fc3d 2c5c 923e
000000f0: 7a08 373d d620 1b3e 8257 283e 204e 863e
00000100: 937e 3cbe 00d5 ba3d 2b14 fa3d ba00 a53d
00000110: b09b ba3d 5c45 883e fe88 3f3e b94e d2bc
00000120: 38a8 883e a4de 943d bfde 98be 5333 92be
00000130: b888 723d bc01 c73d 70b9 cbbc b5ba 543e
00000140: dcc8 13be 2ec2 f2bd abe3 86be c080 313e
00000150: 742c 153e 88d1 56be a0f4 82be 84ec be3d
00000160: 5458 9a3d 40e5 0c3e 7528 573e 1027 333e
00000170: ae5c 9cbe 9454 3d3e ccf6 753e 0395 fcbc
00000180: 4ab3 92be b691 2dbe 0469 3dbe 2c6f aabc
00000190: 282b 633e 4a99 993e a883 c0bd d839 03be
000001a0: e4d8 8b3e 484c 953e 2ef8 943e eaf0 123e
000001b0: 4042 d5bb 40a6 f23b f291 8bbe 09ec 70be
000001c0: c80f 723e e0d6 683d 32f0 08be 7017 713d
000001d0: cad3 423e e031 76be 50c2 74bd f9b4 7dbe
000001e0: 40ff ea3b 9cd9 4b3e a0b2 943e 8a1e 45be
000001f0: 6b29 8dbe f5e7 97be f296 4cbe 446b d33d
00000200: a285 6cbe 42c7 7fbe 8df7 59be 7019 7fbd
00000210: 8697 833e 14a1 683e 8ca1 633e 565d 01be
00000220: c8b4 34be 0e57 dbbd cc2a 3c3e 1f61 8fbe
00000230: 2055 97be 70bf 253d b80f 01bd f07c 3ebe
00000240: 72ca 813e 305a cfbd 7016 373e d870 8ebd
00000250: e0ec 7fbe a011 dd3c f298 0b3e 89e7 933e
00000260: 3b61 0fbe a3d7 72be f173 6c3d 8011 41bd
00000270: 0cdd 003e 15c0 51be 06f8 1a3e 5bb2 a4bd
00000280: 8231 08bd 0036 0bba a2a0 13be d276 6d3e
00000290: a8e7 5ebd e497 3d3e 18ab 82bd 0bd4 93be
000002a0: 1690 82bd b06c 01bd 991c b53e a5ab 3abe
000002b0: a587 10bd 00e3 da3b f0c9 81be c0bb 4cbc
000002c0: bd86 88be dcb6 ca3e 8097 d6bd b1c3 a8bd
000002d0: 0d85 a33e 5046 6a3e 8577 78be f649 00be
000002e0: 3040 8b3e 922c 53be 94d5 dc3e 8883 d43e
000002f0: f8bf ccbd 6050 6d3e 34c0 073e f4c5 74bd
00000300: 2abe 753d 3377 cdbc 3a6b 883e 637d 913e
00000310: 6f1f d2bd e66d 71be 223c 7a3e 02fa a93e
00000320: 8070 533d cc0b f53d c4c2 643e 9ca3 643e
00000330: 60e0 3f3d aa91 95be d442 0d3e 4c54 a73d
00000340: c09c 593e 7a1b 7ebe c322 59be 3065 5b3d
00000350: d0cc 0ebd 500e 8dbc 584b e33d d8bb 6d3e
00000360: 249d 493e fa71 7fbe 2da0 2abe 402e 0d3d
00000370: 9a1d 983e 78c5 b1bd 3bea 4ebe a340 11be
00000380: 9446 18be 80ea b63d a228 b3bd 51e5 12be
00000390: a0c4 b83c f81e c9bd eadc 79be 60b8 403c
000003a0: 787c a23d 02db 04be c02b 7c3d 1c93 5a3e
000003b0: a841 adbd fcac 6dbe 288a 32be bc16 8d3e
000003c0: 7cc2 7ebe 7792 99be d042 4e3e a0ac 01bd
000003d0: 3071 2e3e 2607 6cbe 24a2 853d 0032 32ba
000003e0: 29ac 06be 0fb9 95be b0f6 823e 8f87 53be
000003f0: fcb4 173e d6f4 993e 76d8 0bbe e8e3 a43d
0.26697946 0.024644222 0.22360602 0.2952863 0.28907478 -0.16185749 -0.096977904 -0.21089154
0.13425879 -0.08096259 -0.18434455 0.19157857 0.23939812 0.07117464 -0.17014323 -0.02262047
0.29022956 0.051770788 0.06068943 0.10433024 -0.15495549 -0.04114628 0.2888834 0.10249692
-0.13535744 -0.028561026 0.09681478 -0.11618902 -0.124114454 -0.0050192997 0.13967285 0.2756918
-0.23283601 0.0626491 -0.012960628 -0.05825005 -0.045847602 0.28401253 0.16686226 -0.24368133
-0.2484911 -0.10449734 -0.29286847 0.23614669 0.29711962 -0.12736028 0.0047448 0.06785673
-0.27076417 0.07358883 -0.03227651 0.21146853 -0.077296406 -0.14924377 0.27400455 -0.068237096
-0.20566899 0.111391306 0.1233004 0.28585947 0.04468582 0.15149245 0.16439632 0.2623148
-0.18407659 0.09122658 0.12210878 0.08056779 0.09111726 0.26615417 0.18704602 -0.025672304
0.2669084 0.07269028 -0.29857442 -0.28554782 0.059212416 0.09717128 -0.024868697 0.20774348
-0.1443209 -0.11853443 -0.26345572 0.1733427 0.14567739 -0.20978367 -0.2557726 0.093224555
0.075363785 0.13759327 0.21011527 0.1749537 -0.3053946 0.18489295 0.24019927 -0.030832773
-0.28652412 -0.16950116 -0.18497092 -0.020804964 0.22184432 0.29999763 -0.094001114 -0.12815034
0.27313912 0.2915976 0.29095596 0.14349714 -0.0065081418 0.0074050725 -0.27259785 -0.2352754
0.23638833 0.056845546 -0.13372877 0.058860242 0.19026104 -0.24042463 -0.059755623 -0.24776067
0.0071715415 0.1990723 0.2904253 -0.19249931 -0.27570662 -0.29669157 -0.19979456 0.10323194
-0.23097852 -0.24978355 -0.2128584 -0.06228012 0.2570154 0.22717696 0.22229594 -0.12633261
-0.17647088 -0.10709964 0.183757 -0.28003785 -0.29557133 0.040465772 -0.03150913 -0.18602347
0.25349766 -0.10124624 0.17879653 -0.06955117 -0.24992704 0.026985943 0.13632563 0.28887585
-0.14001934 -0.23715071 0.057727758 -0.04713583 0.12584323 -0.2048343 0.15133676 -0.08041831
-0.03325034 -0.0005310476 -0.14416745 0.23189858 -0.054420143 0.18514973 -0.0638029 -0.28872713
-0.063751385 -0.031597793 0.3537338 -0.1822954 -0.03528561 0.0066798925 -0.2534938 -0.012495935
-0.26665297 0.39592636 -0.10478115 -0.0824045 0.31937447 0.22878385 -0.24264343 -0.12528214
0.2719741 -0.20622471 0.43131697 0.415066 -0.09997553 0.23175192 0.13256913 -0.059759095
0.059995808 -0.025081253 0.26644307 0.28415975 -0.10259902 -0.23577079 0.24437001 0.33198553
0.05162096 0.11965141 0.22339922 0.22328037 0.04684484 -0.29212695 0.13795024 0.08170375
0.21251202 -0.24815169 -0.21204667 0.053563297 -0.034863293 -0.017218739 0.11098355 0.23216188
0.1968885 -0.24945822 -0.16662665 0.034467936 0.29710084 -0.08680242 -0.2020654 -0.14184813
-0.14870673 0.08931446 -0.087479845 -0.1434529 0.022554696 -0.0982036 -0.24400678 0.011762708
0.07933897 -0.1297417 0.06156516 0.2134518 -0.084597886 -0.2321052 -0.17435515 0.27556407
-0.24878877 -0.29994556 0.20142674 -0.03165877 0.17035365 -0.23049602 0.065250665 -0.0006797612
-0.13151611 -0.2924275 0.25578833 -0.2065718 0.14815134 0.30069607 -0.13656792 0.08051282

sequential/dense_2/MatMul f4 [2, 15]
00000000: 0670 18bd b58c 06bf ec20 883e eff3 163f
00000010: 00cc 553e 4b5b c6be 22c4 f4be 2655 ddbe
00000020: dee9 ccbe 3aa2 853e d62f 7abd 2222 913e
00000030: ff59 d1be cf28 f43e d295 d43e a7bb ba3e
00000040: 2350 dbbe 2572 d6be 8622 d4be 804f 2b3e
00000050: f041 35bf 5a18 f43e 62f4 e3be a88b 1f3e
00000060: 0247 8c3e 8907 6c3e 453a 323f 5dcf de3c
00000070: fb2e 363e 7521 82be
-0.03721621 -0.5255845 0.26587617 0.58965963 0.20878601 -0.38741526 -0.47805887 -0.43229026
-0.40022177 0.26100332 -0.061080776 0.28346354 -0.40888974 0.47687384 0.41520554 0.36471292
-0.42834577 -0.4188396 -0.4143259 0.16729546 -0.7080374 0.4767483 -0.44522387 0.15580618
0.27397925 0.2304975 0.6962016 0.027198488 0.17791359 -0.2541615
